…
			Ex: {User: Products}
				(22360, [561, 792]), (22361, [11615, 5506]), (22362, [43, 1635, 6384])]
			
2. 	Train knowledge graph embeddings (TransE in this case):
	A.	Train knowledge graph embeddings
		i) 	Load the dataset
		ii) Initialize batch dataloader for the dataset (64 - Batch Size)
			Ex:
				review_seq
				[ 23171 104063  62738 ...  17730  28030  15725]
		iii)Evaluate the number of words to train by multiplying epochs with review word counts
			Ex:
				Words_To_Train = 405897991
		iv)	Create the model for knowledge embeddings
			Ex:
				model:  KnowledgeEmbedding(
					  (user): Embedding(22364, 100, padding_idx=22363)
					  (product): Embedding(12102, 100, padding_idx=12101)
					  (word): Embedding(22565, 100, padding_idx=22564)
					  (related_product): Embedding(164722, 100, padding_idx=164721)
					  (brand): Embedding(2078, 100, padding_idx=2077)
					  (category): Embedding(249, 100, padding_idx=248)
					  (purchase_bias): Embedding(12102, 1, padding_idx=12101)
					  (mentions_bias): Embedding(22565, 1, padding_idx=22564)
					  (describe_as_bias): Embedding(22565, 1, padding_idx=22564)
					  (produced_by_bias): Embedding(2078, 1, padding_idx=2077)
					  (belongs_to_bias): Embedding(249, 1, padding_idx=248)
					  (also_bought_bias): Embedding(164722, 1, padding_idx=164721)
					  (also_viewed_bias): Embedding(164722, 1, padding_idx=164721)
					  (bought_together_bias): Embedding(164722, 1, padding_idx=164721)
					)
			a)	Create entity embedding and weight of size [vocab_size+1, embed_size]
				- For all the entities (User, Product, Word, Related_Product, Brand, Category)
				Ex:
					Embedding(22364, 100, padding_idx=22363)
					Embedding(12102, 100, padding_idx=12101)
					Embedding(22565, 100, padding_idx=22564)
					Embedding(164722, 100, padding_idx=164721)
					Embedding(2078, 100, padding_idx=2077)
…
